…
erId":"12888111407848532502"}},"outputId":"ed4e050e-71ed-43f7-a55f-589912e586a6"},"source":["discriminator.summary()"],"execution_count":12,"outputs":[{"output_type":"stream","name":"stdout","text":["Model: \"model\"\n","_________________________________________________________________\n","Layer (type)                 Output Shape              Param #   \n","=================================================================\n","input_1 (InputLayer)         [(None, 28, 28, 1)]       0         \n","_________________________________________________________________\n","conv2d (Conv2D)              (None, 14, 14, 64)        1664      \n","_________________________________________________________________\n","dropout (Dropout)            (None, 14, 14, 64)        0         \n","_________________________________________________________________\n","conv2d_1 (Conv2D)            (None, 7, 7, 128)         204928    \n","_________________________________________________________________\n","dropout_1 (Dropout)          (None, 7, 7, 128)         0         \n","_________________________________________________________________\n","conv2d_2 (Conv2D)            (None, 4, 4, 256)         819456    \n","_________________________________________________________________\n","dropout_2 (Dropout)          (None, 4, 4, 256)         0         \n","_________________________________________________________________\n","conv2d_3 (Conv2D)            (None, 4, 4, 512)         3277312   \n","_________________________________________________________________\n","dropout_3 (Dropout)          (None, 4, 4, 512)         0         \n","_________________________________________________________________\n","flatten (Flatten)            (None, 8192)              0         \n","_________________________________________________________________\n","dense (Dense)                (None, 1)                 8193      \n","=================================================================\n","Total params: 4,311,553\n","Trainable params: 4,311,553\n","Non-trainable params: 0\n","_________________________________________________________________\n"]}]},{"cell_type":"code","metadata":{"colab":{"base_uri":"https://localhost:8080/"},"id":"iTKEHkqPlN_V","executionInfo":{"status":"ok","timestamp":1632038894077,"u
…
outputId":"b71ec70e-68c8-4d83-f801-afbb81aa6e1a"},"source":["generator = build_generator()\n","generator.summary()"],"execution_count":16,"outputs":[{"output_type":"stream","name":"stdout","text":["Model: \"model_1\"\n","_________________________________________________________________\n","Layer (type)                 Output Shape              Param #   \n","=================================================================\n","input_2 (InputLayer)         [(None, 32)]              0         \n","_________________________________________________________________\n","dense_1 (Dense)              (None, 3136)              103488    \n","_________________________________________________________________\n","batch_normalization (BatchNo (None, 3136)              12544     \n","_________________________________________________________________\n","activation (Activation)      (None, 3136)              0         \n","_________________________________________________________________\n","reshape (Reshape)            (None, 7, 7, 64)          0         \n","_________________________________________________________________\n","dropout_4 (Dropout)          (None, 7, 7, 64)          0         \n","_________________________________________________________________\n","up_sampling2d (UpSampling2D) (None, 14, 14, 64)        0         \n","_________________________________________________________________\n","conv2d_transpose (Conv2DTran (None, 14, 14, 32)        51232     \n","_________________________________________________________________\n","batch_normalization_1 (Batch (None, 14, 14, 32)        128       \n","_________________________________________________________________\n","activation_1 (Activation)    (None, 14, 14, 32)        0         \n","_________________________________________________________________\n","up_sampling2d_1 (UpSampling2 (None, 28, 28, 32)        0         \n","_________________________________________________________________\n","conv2d_transpose_1 (Conv2DTr (None, 28, 28, 16)        12816     \n","_________________________________________________________________\n","batch_normalization_2 (Batch (None, 28, 28, 16)        64        \n","_________________________________________________________________\n","activation_2 (Activation)    (None, 28, 28, 16)        0         \n","_________________________________________________________________\n","conv2d_transpose_2 (Conv2DTr (None, 28, 28, 8)         3208      \n","_________________________________________________________________\n","batch_normalization_3 (Batch (None, 28, 28, 8)         32        \n","_________________________________________________________________\n","activation_3 (Activation)    (None, 28, 28, 8)         0         \n","_________________________________________________________________\n","conv2d_4 (Conv2D)            (None, 28, 28, 1)         201       \n","=================================================================\n","Total params: 183,713\n","Trainable params: 177,329\n","Non-trainable params: 6,384\n","_________________________________________________________________\n"]}]},{"cell_type":"markdown","metadata":{"id":"9HvlKYAvoIQf"},"source":["### Create Adversarial Network\n","Controller to determine the sequence of Discriminator 
…
